…
//localhost:8080/"},"id":"hP224wcH9oM4","executionInfo":{"status":"ok","timestamp":1652822479439,"user_tz":420,"elapsed":427,"user":{"displayName":"Michael Rimboim","userId":"10409174233422570990"}},"outputId":"fd284d89-8820-4e5e-eb31-d2d7d0c04d77"},"execution_count":null,"outputs":[{"output_type":"stream","name":"stdout","text":["Model: \"sequential_1\"\n","_________________________________________________________________\n"," Layer (type)                Output Shape              Param #   \n","=================================================================\n"," embedding_1 (Embedding)     (None, 50, 50)            407050    \n","                                                                 \n"," conv1d_2 (Conv1D)           (None, 46, 128)           32128     \n","                                                                 \n"," max_pooling1d_1 (MaxPooling  (None, 9, 128)           0         \n"," 1D)                                                             \n","                                                                 \n"," conv1d_3 (Conv1D)           (None, 5, 128)            82048     \n","                                                                 \n"," global_max_pooling1d_1 (Glo  (None, 128)              0         \n"," balMaxPooling1D)                                                \n","                                                                 \n"," dense_2 (Dense)             (None, 128)               16512     \n","                                                                 \n"," dropout_1 (Dropout)         (None, 128)               0         \n","                                                                 \n"," dense_3 (Dense)             (None, 1)                 129       \n","                                                                 \n","=================================================================\n","Total params: 537,867\n","Trainable params: 130,817\n","Non-trainable params: 407,050\n","_________________________________________________________________\n"]}]},{"cell_type":"markdown","source":["compiling the model👇"],"metadata":{"id":"aHMR1D_jm
…
