…
//localhost:8080/"},"id":"8OW3Bzypzc6P","executionInfo":{"status":"ok","timestamp":1652474099680,"user_tz":420,"elapsed":982,"user":{"displayName":"Michael Rimboim","userId":"10409174233422570990"}},"outputId":"53218b48-2c43-47c1-cddc-ed18ba4c8e7d"},"execution_count":null,"outputs":[{"output_type":"stream","name":"stdout","text":["Model: \"sequential_4\"\n","_________________________________________________________________\n"," Layer (type)                Output Shape              Param #   \n","=================================================================\n"," embedding (Embedding)       (None, 50, 50)            407050    \n","                                                                 \n"," conv1d (Conv1D)             (None, 46, 128)           32128     \n","                                                                 \n"," max_pooling1d (MaxPooling1D  (None, 9, 128)           0         \n"," )                                                               \n","                                                                 \n"," conv1d_1 (Conv1D)           (None, 5, 128)            82048     \n","                                                                 \n"," global_max_pooling1d (Globa  (None, 128)              0         \n"," lMaxPooling1D)                                                  \n","                                                                 \n"," dense_8 (Dense)             (None, 128)               16512     \n","                                                                 \n"," dropout_4 (Dropout)         (None, 128)               0         \n","                                                                 \n"," dense_9 (Dense)             (None, 1)                 129       \n","                                                                 \n","=================================================================\n","Total params: 537,867\n","Trainable params: 130,817\n","Non-trainable params: 407,050\n","_________________________________________________________________\n"]}]},{"cell_type":"code","source":["loss, accuracy = model.evaluate(X_test_padded,y_test)\
…
